nets/mlp_default.pt (torch, 21495 bytes, 5 tensors)

weight f4 [16, 12]
000000 a8 ec 79 3f 98 81 78 bf 7c 34 d2 be 2c a6 09 3f
       0.97626734 -0.97072744 -0.41055667 0.53769183
000010 00 bc 41 bf 2f af 17 3f b0 88 d2 ba f0 cf 4f ba
       -0.7567749 0.59251684 -0.0016062465 -0.00079274084
000020 ee 2c 85 b9 06 ca be ba f4 25 2c 3c 4f 1d ef 3b
       -0.00025401212 -0.0014556057 0.010507096 0.007297195
000030 86 5a bf 3e 0b 60 5b 3f 06 80 95 bf 6b 86 1a bf
       0.3737375 0.85693425 -1.1679695 -0.60361356
000040 9f 5b 64 3f f3 ca d6 be 5a dd b7 b8 9f 2b 07 bc
       0.892023 -0.41951713 -8.76735e-05 -0.008250146
000050 af b3 e3 ba c6 9a 07 3c 1b 40 f1 3b 4d ac 75 3c
       -0.0017372275 0.008276647 0.0073623783 0.014994693
000060 59 32 33 b7 53 a3 9a 36 dc 42 12 38 f4 75 98 b8
       -1.0680954e-05 4.608571e-06 3.487138e-05 -7.269895e-05
000070 7a db 30 b7 c8 66 a2 38 eb d8 ac bf 17 54 9d bf
       -1.0541518e-05 7.7439065e-05 -1.3503698 -1.2291287
000080 c4 c6 78 be 15 a9 89 3e 77 3f 8f 3f a6 a2 b7 3f
       -0.24294573 0.26886812 1.1191243 1.4346511
000090 6b 77 6e bc 15 75 38 3a de 19 1f 3d 16 6d 99 bb
       -0.014554839 0.00070364896 0.03884303 -0.0046821935
0000a0 fe ab ba bc 69 b3 4b 3d 2e 26 81 bf ce 90 72 bf
       -0.02278709 0.049731646 -1.0089777 -0.94752204
0000b0 fa 34 f5 bd cd fa 57 3e d0 85 5c 3f 5e 73 84 3f
       -0.11972995 0.21091767 0.8614168 1.0347707
0000c0 ef 0d 56 b8 8d ff 82 b8 c2 ff c7 b8 5b b7 8b b8
       -5.1034553e-05 -6.246483e-05 -9.536698e-05 -6.662189e-05
0000d0 e7 a2 6f b8 27 12 9b b8 97 d8 8f bf 6c 03 04 c0
       -5.7133755e-05 -7.394357e-05 -1.1237973 -2.0627089
0000e0 e8 64 95 3f fb 57 06 3e fe 13 79 3f 4b 53 6a 3f
       1.1671419 0.131195 0.9729613 0.91533345
0000f0 39 9f 93 bf 5f 28 08 3f 1b a5 36 3f 18 01 18 3e
       -1.1532966 0.531866 0.7134568 0.14844167
000100 a9 24 0c 3f a4 f1 5a bf d8 67 50 b9 1b 06 47 ba
       0.5474344 -0.85524964 -0.0001987511 -0.00075921573
000110 56 12 b6 3c 77 a4 b7 3c 6b 2d 0c 3d b6 e7 2a 3d
       0.02222554 0.02241729 0.034223 0.041724883
000120 69 cf 9a 3e 9a 58 bb 3e 60 f3 e7 3e c8 03 03 bf
       0.30236366 0.36591035 0.45302868 -0.51177645
000130 b4 af 79 bf 1d 32 03 bf d9 08 f2 3d 54 4f cd 3d
       -0.97533727 -0.5124834 0.11818094 0.10024896
000140 3f bd 49 3e 96 85 55 3e 0d e8 85 3e 5b 9e 92 3e
       0.19701098 0.2085174 0.26153603 0.2863644
000150 5c d9 c9 3e b2 92 4f bf 94 cf e4 3e 47 c5 17 3f
       0.39423645 -0.81083214 0.4468962 0.59285396
000160 db 7d de be d3 da 4a 3f e8 59 03 bf cc 7e f4 be
       -0.43455395 0.7924015 -0.5130906 -0.47752988
000170 7d 54 c1 be 4b 26 79 be 81 78 f9 3d 40 b2 00 3e
       -0.37759772 -0.24331014 0.121811874 0.12567997
000180 6d f3 95 b7 ba fb 4e b7 bd 0b 3c b8 e6 b3 c8 b7
       -1.7875538e-05 -1.23371665e-05 -4.4833625e-05 -2.392563e-05
000190 41 80 2f 34 93 3f 4d b8 ec 48 e8 bd 0d db d8 bf
       1.6344804e-07 -4.8935017e-05 -0.11342034 -1.6941849
0001a0 83 7f 4d bf a4 e8 ec be b0 b8 fd 3f 0e a1 8b 3f
       -0.8027269 -0.4627124 1.9821987 1.0908525
0001b0 37 7b c4 bf 18 84 9f be 2d d4 11 3f 5c b4 b5 bd
       -1.5350102 -0.31155467 0.5696438 -0.088722914
0001c0 e8 fc df 3e 61 b5 8f 3f de f3 98 3e 86 c7 77 3e
       0.4374764 1.1227227 0.29873556 0.24197206
0001d0 8f 13 13 3d e8 fe 11 be 0b af 58 be 90 1c 1c be
       0.035907324 -0.14257395 -0.21160524 -0.1524527
0001e0 37 0e b9 37 32 60 49 36 e3 ab bd b7 c9 8c 67 37
       2.2060338e-05 3.0007327e-06 -2.2610597e-05 1.3801452e-05
0001f0 5e 81 4e 37 28 49 b8 b7 52 72 13 3f 28 ef a3 3f
       1.23086775e-05 -2.1968575e-05 0.57596314 1.280736
000200 44 da 3b 3f b3 01 52 3e 16 22 b4 bf 0b b3 b1 bf
       0.7337992 0.2050846 -1.4072902 -1.3882765
000210 f1 a4 49 37 16 a4 d8 38 9f 95 24 39 7a 66 64 38
       1.2018937e-05 0.00010330246 0.00015695997 5.4454875e-05
000220 98 28 83 37 cb 63 99 b7 80 2f af bf 0f 20 9d bf
       1.563532e-05 -1.8285491e-05 -1.3686371 -1.2275409
000230 2f 72 72 be 4e 61 8c 3e 89 b2 8f 3f 39 db b7 3f
       -0.2367637 0.27417988 1.122636 1.4363776
000240 a7 4e de b7 8e 2b 26 b8 5c 4b 4c b8 85 bf 73 b8
       -2.6501088e-05 -3.9618048e-05 -4.8707574e-05 -5.811408e-05
000250 0c 61 6c b8 05 8b 39 b8 39 79 0b c0 68 4c 14 bf
       -5.6357167e-05 -4.423691e-05 -2.1792738 -0.57929087
000260 89 f9 c5 be a1 48 74 3f 21 95 ba 3f db bb 3b 3f
       -0.38666943 0.9542332 1.457676 0.7333352
000270 98 8a 08 b7 2e c0 95 b6 92 83 12 b8 5a 51 64 37
       -8.138501e-06 -4.4629187e-06 -3.4931647e-05 1.36088e-05
000280 67 80 d8 b5 3d d0 0b b8 61 06 ee 3f d6 3e ab 3f
       -1.6130624e-06 -3.333412e-05 1.8595697 1.3378551
000290 e0 b3 f5 be 6f 1e 2b bf 9e 8d 93 bf 7f 76 65 bf
       -0.47988796 -0.6684331 -1.1527593 -0.89633936
0002a0 37 f3 dd be c1 3e 32 bf 6b 16 99 be 8e c6 5d 3d
       -0.4334962 -0.69627005 -0.29899916 0.054144435
0002b0 32 92 a5 3f a4 03 8f 3f f8 91 2d bd 20 88 3d bd
       1.293524 1.1172986 -0.042375535 -0.046272397
0002c0 7f 3e a8 be a6 25 bc be 41 89 56 be 23 84 12 be
       -0.3286018 -0.36747473 -0.20950796 -0.14308219
0002d0 ac 73 8c b7 f6 bc 97 b7 1f 26 bd b7 98 cc 8d 36
       -1.6743164e-05 -1.8088595e-05 -2.2548307e-05 4.2259453e-06
0002e0 c1 36 92 37 a2 bb a5 b7 5b 12 c1 bf 2e 54 55 bf
       1.7430053e-05 -1.9756906e-05 -1.5083727 -0.83331573
0002f0 3f 57 49 bf df 4c bd 3d 7b 20 23 3f 95 81 19 40
       -0.7864875 0.092431776 0.63721436 2.398534

bias f4 [16]
000000 47 21 e0 3b ef 34 b4 bb 3f 92 b4 3c 92 9d d2 3d
       0.0068399045 -0.0054994742 0.022042392 0.102839604
000010 3e 3f 0a b8 38 e1 05 3d da 94 bc 3e fb d0 13 bf
       -3.2960663e-05 0.03268549 0.36832315 -0.57740754
000020 3a a2 03 37 4f ac 93 bd 59 38 15 b7 43 4f b4 3c
       7.84598e-06 -0.072106 -8.8942115e-06 0.022010451
000030 eb 11 87 b7 d6 c2 fe b6 a8 a4 02 bf 42 28 f5 b6
       -1.6101598e-05 -7.592472e-06 -0.51032495 -7.3062556e-06

weight f4 [16, 16]
000000 1a c1 a5 40 bf 93 5d 40 9e 99 e0 be 3a 71 bc 3d
       5.179822 3.4621427 -0.438672 0.09201284
000010 8e 30 e6 c0 73 97 61 40 6f 52 27 3f 8d 37 0a 3f
       -7.193427 3.5248687 0.6536016 0.53991014
000020 53 7f e1 c0 6b c8 e6 3e 85 07 0c c1 e8 96 d5 be
       -7.0467925 0.45074782 -8.751836 -0.41716695
000030 01 e3 f0 c0 f0 f6 06 c1 23 3d 19 3f 64 90 e8 c0
       -7.5277104 -8.435287 0.5985891 -7.267626
000040 52 13 02 c1 c3 d9 ef c0 0c 45 28 c1 2c d5 ff bf
       -8.129717 -7.4953322 -10.516857 -1.998693
000050 22 79 73 41 1a cc a1 c0 62 1f 1e c0 3a fc 0d c0
       15.217073 -5.0561647 -2.4706655 -2.2185197
000060 96 30 79 41 9e a6 97 c0 91 6d 97 40 36 05 28 c1
       15.574362 -4.739089 4.732125 -10.501272
000070 8a aa 73 41 00 a9 88 40 5a b6 60 c0 e3 77 6c 41
       15.2291355 4.27063 -3.5111299 14.779269
000080 66 33 97 40 8a 23 59 40 eb b6 c0 be 79 5f 61 3d
       4.725024 3.3927941 -0.37639555 0.05502269
000090 44 d6 d8 c0 2b aa 40 40 46 31 05 3f bb 92 e8 3e
       -6.7761555 3.0103862 0.5202831 0.45424446
0000a0 2a a0 db c0 b9 f2 d5 3e 7c 89 04 c1 1d d1 c1 be
       -6.8633013 0.41786745 -8.2835655 -0.37854853
0000b0 a6 db ec c0 11 b7 02 c1 1a 01 cc 3e 81 74 e8 c0
       -7.4018126 -8.169694 0.3984459 -7.2642217
0000c0 9f 4a cf c0 08 8a b8 c0 2e 79 df c0 e3 d3 92 bf
       -6.477859 -5.7668495 -6.9835424 -1.1470913
0000d0 01 60 86 41 20 2f 49 c0 60 e7 d4 be 7b 20 c1 be
       16.796877 -3.1435013 -0.41582775 -0.37720093
0000e0 03 b4 8c 41 81 04 cf bd f5 e1 a8 40 c1 d3 dc c0
       17.587896 -0.10108281 5.2775826 -6.900849
0000f0 80 f5 85 41 28 ac a9 40 0a 8d 23 be f2 63 81 41
       16.744873 5.302265 -0.15971771 16.173801
000100 57 71 a4 40 bf 28 55 40 f3 8f af be 97 b6 89 3d
       5.1388354 3.330612 -0.34289512 0.067242794
000110 b7 3f e1 c0 b6 7c 48 40 5d 5e 0b 3f 5d 77 f2 3e
       -7.0390277 3.1326118 0.5444086 0.47356692
000120 7b c5 ca c0 35 9a ad 3e 94 c5 09 c1 16 2a bb be
       -6.3366065 0.33906713 -8.610737 -0.36555547
000130 76 60 e7 c0 2c 2a f4 c0 87 26 ca 3e 47 c0 d6 c0
       -7.230525 -7.630148 0.3948252 -6.7109714
000140 ed f8 94 40 db eb 55 40 11 a4 93 be a2 6c 42 bd
       4.6553864 3.3425205 -0.2883611 -0.04746688
000150 42 48 dd c0 84 2b 46 40 a0 95 0a 3f 3b f1 e0 3e
       -6.9150705 3.096406 0.5413456 0.43934044
000160 5c e2 e9 c0 8d 9f b5 3e 5a de 0d c1 7c 24 93 be
       -7.3088818 0.3547329 -8.866785 -0.28738773
000170 ff 58 f0 c0 f1 f1 ff c0 ae 34 fe 3e 13 0a f1 c0
       -7.510864 -7.998284 0.49649566 -7.53248
000180 b8 89 9f 40 33 1a 73 40 13 cb e2 be ef 5e f6 3d
       4.9855614 3.798474 -0.44295558 0.12029826
000190 09 0c ed c0 59 64 4a 40 60 72 1c 3f 4e 24 12 3f
       -7.407719 3.1623747 0.6111202 0.57086647
0001a0 0e 09 d6 c0 0c 2f e5 3e b3 3c 0a c1 24 65 ce be
       -6.6886053 0.44762456 -8.639819 -0.4031154
0001b0 06 92 f2 c0 73 84 00 c1 0d cd 0c 3f 8d 87 e3 c0
       -7.580325 -8.032336 0.5500038 -7.1102967
0001c0 c7 be 9c 40 72 be 45 40 16 e0 bf be a6 61 ba 3d
       4.8982882 3.0897489 -0.37475652 0.09100656
0001d0 6b 24 f0 c0 65 fd 46 40 3d 76 14 3f 7e 2c fb 3e
       -7.5044456 3.109216 0.5799292 0.49057382
0001e0 24 2e d4 c0 58 02 a2 3e f2 07 07 c1 18 d8 ae be
       -6.6306324 0.31642413 -8.43944 -0.3414924
0001f0 b3 b7 e9 c0 78 40 02 c1 b1 44 ef 3e 87 8a f4 c0
       -7.303674 -8.140739 0.46732095 -7.64191
000200 76 2e 0a c1 a6 0c e7 c0 27 83 26 c1 c2 c0 fd bf
       -8.636343 -7.220294 -10.40702 -1.982445
000210 8f a8 50 41 75 9b f0 c0 6a 06 97 c0 93 5d 87 bf
       13.041152 -7.5189767 -4.719533 -1.0575432
000220 db b5 57 41 57 ac d9 c0 56 69 25 40 76 6e 26 c1
       13.481898 -6.8022876 2.5845542 -10.401968
000230 7c 71 52 41 5c f3 fc 3f f0 8f 3b c0 15 cf 49 41
       13.152706 1.9761767 -2.9306602 12.613057
000240 bc 34 9d 40 f5 d0 60 40 4d b1 c2 be 80 f0 8b 3d
       4.9126873 3.5127537 -0.38025895 0.06832981
000250 76 00 e1 c0 4c 6e 59 40 d3 53 28 3f 94 cc e6 3e
       -7.0313063 3.397357 0.65752906 0.45077956
000260 d8 fd d5 c0 99 a6 dc 3e 93 7b 08 c1 9f 3c be be
       -6.687237 0.43095854 -8.5301695 -0.37155625
000270 b9 88 ea c0 ef ab f2 c0 bb 51 07 3f 18 fe e5 c0
       -7.32919 -7.583488 0.52859086 -7.1872673
000280 a8 27 96 40 2f 4c 60 40 a7 e1 b6 be ae a0 37 3d
       4.692341 3.5046499 -0.35719034 0.04483097
000290 51 74 e3 c0 a5 79 51 40 db fc 11 3f ff 0c e1 3e
       -7.107949 3.2730496 0.5702645 0.43955228
0002a0 bd c0 ce c0 15 5e b7 3e 7a 41 06 c1 90 aa ac be
       -6.4610276 0.35813966 -8.3909855 -0.3372388
0002b0 26 11 e0 c0 d1 e1 fb c0 ba d9 f9 3e 46 ec e9 c0
       -7.0020933 -7.8713155 0.48798925 -7.310092
0002c0 ed 30 9f 40 c8 d4 76 40 3c ed c5 be e0 4f 46 3d
       4.9747224 3.8567371 -0.38657558 0.04841602
0002d0 53 32 ed c0 51 27 5c 40 52 5a 0a 3f e1 a3 0f 3f
       -7.412393 3.4398997 0.5404407 0.56109434
0002e0 89 23 dd c0 26 73 d3 3e 51 9e 0a c1 fe 00 c9 be
       -6.910588 0.4129879 -8.663651 -0.3925857
0002f0 a7 38 f7 c0 4d 42 03 c1 33 27 0d 3f 1d 21 e4 c0
       -7.7256656 -8.203687 0.5513794 -7.129042
000300 f7 71 ab 40 24 50 60 40 49 b0 c2 be c0 c9 95 3d
       5.3576617 3.5048914 -0.3802512 0.073138714
000310 89 60 e1 c0 e9 90 58 40 de c5 0f 3f 61 cc 13 3f
       -7.043034 3.3838446 0.56161296 0.5773373
000320 22 34 e8 c0 b2 81 c9 3e 4c d7 08 c1 1e 94 cc be
       -7.256364 0.39356762 -8.552563 -0.39956754
000330 d3 d6 f6 c0 0a d7 04 c1 51 e6 ff 3e ed b4 eb c0
       -7.7137237 -8.3025 0.49980405 -7.3658357
000340 d5 1f a1 40 18 9a 4d 40 b1 b1 ae be df d6 31 3d
       5.0351357 3.2125301 -0.34119943 0.043417808
000350 b9 09 d7 c0 5b 2d 49 40 fe 1f 1b 3f 6b 78 05 3f
       -6.719937 3.1433933 0.6059569 0.5213687
000360 85 14 cd c0 cf 50 ba 3e 6a ac 01 c1 10 03 ae be
       -6.408755 0.36389777 -8.104593 -0.33986712
000370 3f 0b e1 c0 ea d1 fb c0 3a a2 fb 3e fa 23 db c0
       -7.032623 -7.8693743 0.49147207 -6.8481417
000380 f5 28 a3 40 1c b6 62 40 ae 95 d0 be 8b be e5 3d
       5.0987496 3.542365 -0.40739197 0.11217984
000390 9a c9 d7 c0 a0 47 4a 40 e2 0a 19 3f e0 b2 05 3f
       -6.7433596 3.1606216 0.5978223 0.52226067
0003a0 d9 48 d1 c0 7b ba fc 3e ce b2 01 c1 1e 2c cc be
       -6.5401425 0.49361023 -8.1061535 -0.3987741
0003b0 75 32 e1 c0 3a 71 e9 c0 0e af ee 3e ac c7 d3 c0
       -7.0374093 -7.2950716 0.4661793 -6.618124
0003c0 90 3a ac 40 f3 15 5a 40 46 fd b9 be c8 24 a6 3d
       5.3821487 3.4075897 -0.36326045 0.08112484
0003d0 f8 96 e4 c0 ab c3 4a 40 21 dc 18 3f d4 c8 03 3f
       -7.143429 3.1681926 0.5971089 0.51478314
0003e0 9f 35 e0 c0 49 cd 84 3e ea 34 09 c1 4f eb bf be
       -7.0065455 0.2593787 -8.575418 -0.37484214
0003f0 cb 97 e4 c0 77 85 01 c1 ee fd ec 3e 46 7d e7 c0
       -7.1435294 -8.095084 0.46287483 -7.234042

bias f4 [16]
000000 4a 45 58 3e 59 d4 94 3e ba 94 50 3e 6a 17 77 3e
       0.21120182 0.29068258 0.20369235 0.24130026
000010 68 d0 39 3e 5f 64 43 3e b1 51 4b 3e 5e 97 2e 3e
       0.18145907 0.19081257 0.19855382 0.1704993
000020 76 ed 92 3e 59 09 48 3e 4a 12 37 3e 94 c4 4e 3e
       0.28696793 0.19534816 0.1787807 0.20192176
000030 f2 48 49 3e af cd 41 3e a8 5b 42 3e bd b5 41 3e
       0.19656733 0.18926118 0.18980277 0.18916984

weight f4 [1, 16]
000000 89 57 42 c0 20 d1 74 41 4b 88 4e c0 46 7d 80 41
       -3.0365927 15.301056 -3.2270687 16.061169
000010 1e 0c 5f c0 bd fc 60 c0 0c e0 49 c0 60 90 6c c0
       -3.4851146 -3.515426 -3.1542997 -3.696312
000020 cd ca 7b 41 c7 38 50 c0 5b 1f 66 c0 e3 01 4d c0
       15.737012 -3.2534654 -3.5956638 -3.2032402
000030 d7 08 52 c0 c9 7c 58 c0 e0 d9 50 c0 b8 fb 5a c0
       -3.2817895 -3.3826163 -3.263298 -3.4216137
