nets/mlp_default.pt (torch, 21495 bytes, 5 tensors)

weight f4 [16, 12]
-0.7351779 -0.2967801 -0.4488683 -0.589177 -0.29212725 -0.653746 0.6691626 0.6781291
0.4116381 0.44442427 -0.23721787 -0.15368731 0.0010306372 0.00030510142 0.0003309196 -0.0008203205
-0.0010064753 -0.0012636363 -0.934051 -0.7270139 -0.3738409 0.24161799 0.5436445 1.4358082
5.7297977e-05 8.513777e-06 -7.6714394e-05 -0.00012571584 -0.00022028388 -0.00019839525 0.90499777 1.4117154
-0.37134424 -0.3185613 -1.3527393 -0.43045387 2.4801915e-05 2.4559227e-05 -7.851127e-05 -0.00011683419
-0.00021329656 -0.00016708703 0.3764879 1.3383955 -0.29046246 -0.58629376 -0.15591116 -0.7618382
-0.7881847 -0.7043544 0.02146125 0.29043183 1.6351172 1.6466614 -0.2197817 -0.17172201
-0.19650277 -0.15862164 -0.07242434 0.03936636 -0.001172322 -0.0002991486 4.273469e-05 0.001472774
0.0024893994 0.0010374791 -0.79401314 -0.6688905 -0.32418525 0.19685277 0.46110043 1.2947266
0.13710336 -0.30934277 0.12029634 0.089316435 -1.1289424 -0.63295716 0.02739751 0.10547812
0.059512682 0.21096453 0.13120554 0.29441673 0.95753324 0.94887 -0.9444974 -1.0056133
-0.26341042 -0.705869 0.01844471 0.05110589 0.026547965 0.11361041 0.05669878 0.13961
2.4975336e-05 -2.2818938e-05 -9.7016e-05 -0.00016183191 -0.0002798863 -0.00032715852 -1.3183655 0.03946465
-0.20238733 1.1939828 0.08235764 0.2379169 4.893531e-05 5.5300494e-05 -0.00010697996 -0.00015125127
-0.00042038984 -0.00050876243 -0.16453442 -1.050611 -0.8523235 0.5443227 1.0575674 0.6315794
1.7818596e-05 1.550548e-05 -0.00011874492 -0.00013108081 -0.00027211293 -0.00022412246 1.443257 0.43013704
-0.27094555 0.16663656 -1.0272343 -0.914855 3.9776776e-05 8.001528e-05 -9.066287e-05 -5.932798e-05
-0.0002357585 -0.00025764713 -0.7912277 -1.0554283 1.0610974 0.375847 0.041893102 0.39209273
1.6823098e-05 3.526973e-05 -9.532922e-05 -0.00010961311 -0.0001463112 -0.0001895467 1.1369531 0.45004576
0.82569736 -0.34589112 -1.149195 -1.1382748 1.4172322e-05 5.6996774e-05 -9.657678e-05 -0.00013301997
-0.00035591607 -0.00032123915 -0.18902238 -1.2214698 -0.10911251 -0.3196509 0.871506 1.1536242
3.5628276e-05 7.756411e-05 -1.7272992e-05 -7.408822e-05 -0.00034934157 -0.00030384085 -1.0510646 -0.063109085
0.104453065 -0.6748269 1.3202325 0.53093725 -0.0003278476 -0.0001678753 -0.00045125186 -0.0003222447
-0.0005590101 0.0006748956 -0.8562178 -0.6887623 -0.35679078 0.2097149 0.51231444 1.3553985
00000000: 9e34 3cbf 90f3 97be 11d2 e5be 4ed4 16bf
00000010: b491 95be e65b 27bf 3d4e 2b3f de99 2d3f
00000020: 3bc2 d23e 948b e33e 3ee9 72be 3560 1dbe
00000030: 7216 873a 05f6 9f39 477f ad39 c70a 57ba
00000040: b5eb 83ba 99a0 a5ba f71d 6fbf 951d 3abf
00000050: 1368 bfbe b56a 773e 492c 0b3f 90c8 b73f
00000060: 3c53 7038 65d6 0e37 bae1 a0b8 97d2 03b9
00000070: 01fc 66b9 5208 50b9 efad 673f 17b3 b43f
00000080: d520 bebe 771a a3be 9026 adbf 7364 dcbe
00000090: b50d d037 8a04 ce37 6ba6 a4b8 e104 f5b8
000000a0: 5ca8 5fb9 1534 2fb9 06c3 c03e 8b50 ab3f
000000b0: 7fb7 94be 5917 16bf 2da7 1fbe d407 43bf
000000c0: 79c6 49bf 9250 34bf 81cf af3c 7bb3 943e
000000d0: 854b d13f cdc5 d23f 740e 61be e5d7 2fbe
000000e0: 0638 49be b66d 22be 3653 94bd 9f3e 213d
000000f0: 99a8 99ba 0cd7 9cb9 063e 3338 180a c13a
00000100: 3125 233b 06fc 873a 7244 4bbf 683c 2bbf
00000110: 9cfb a5be c693 493e 5b15 ec3e 9ab9 a53f
00000120: d364 0c3e 2d62 9ebe ed5d f63d 89eb b63d
00000130: 2f81 90bf 7b09 22bf be70 e03c ea04 d83d
00000140: 92c3 733d 1607 583e bf5a 063e cabd 963e
00000150: e620 753f 25e9 723f 95ca 71bf f0b7 80bf
00000160: bbdd 86be d5b3 34bf 5c19 973c 6954 513d
00000170: 1e7b d93c 93ac e83d fb3c 683d edf5 0e3e
00000180: 2082 d137 4c6b bfb7 1275 cbb8 6cb1 29b9
00000190: b4bd 92b9 7986 abb9 33c0 a8bf afa5 213d
000001a0: a03e 4fbe 6ed4 983f 1fab a83d 7da0 733e
000001b0: e43f 4d38 74f2 6738 6e5a e0b8 3499 1eb9
000001c0: c567 dcb9 785e 05ba b67b 28be 6c7a 86bf
000001d0: df31 5abf bc58 0b3f 5e5e 873f 30af 213f
000001e0: 2579 9537 c411 8237 b206 f9b8 bd72 09b9
000001f0: 61aa 8eb9 6a02 6bb9 a5bc b83f ec3a dc3e
00000200: 60b9 8abe c6a2 2a3e 6a7c 83bf f033 6abf
00000210: fdd5 2638 e0cd a738 4222 beb8 efd6 78b8
00000220: f135 77b9 d014 87b9 e68d 4abf 4618 87bf
00000230: 0ad2 873f 056f c03e 1a98 2b3d 61c0 c83e
00000240: 541f 8d37 96ee 1338 7ceb c7b8 17e0 e5b8
00000250: 1d6b 19b9 0ec1 46b9 ae87 913f 666c e63e
00000260: e760 533f a418 b1be d218 93bf fdb2 91bf
00000270: a9c5 6d37 d20f 6f38 4489 cab8 477b 0bb9
00000280: 3f9a bab9 fd6b a8b9 158f 41be 1f59 9cbf
00000290: 6176 dfbd 48a9 a3be 041b 5f3f f5a9 933f
000002a0: 926f 1538 eaa9 a238 78e5 90b7 cf5f 9bb8
000002b0: d527 b7b9 d44c 9fb9 4989 86bf 563f 81bd
000002c0: 7deb d53d 75c1 2cbf 61fd a83f 81eb 073f
000002d0: f6e2 abb9 af07 30b9 0096 ecb9 f4f2 a8b9
000002e0: 888a 12ba 7aeb 303a 1731 5bbf ba52 30bf
000002f0: 48ad b6be 81bf 563e 0a27 033f b37d ad3f

bias f4 [16]
0.6373181 0.40307203 -0.36809424 -0.25102985 -1.0081557 0.37110245 1.015324 0.44550633
0.1768991 0.2596871 -0.32747895 0.2217468 -0.33802894 0.2854633 0.23433216 0.38313702
00000000: 4727 233f 755f ce3e d976 bcbe fc86 80be
00000010: 3f0b 81bf 2401 be3e 23f6 813f 6819 e43e
00000020: 0a25 353e b5f5 843e 52ab a7be 9811 633e
00000030: 2112 adbe 3f28 923e c5f4 6f3e 892a c43e

weight f4 [16, 16]
2.1911767 0.8312166 -3.1724699 -3.3679488 0.8148468 0.6078469 0.16146961 0.64901614
-3.5609357 -3.7499928 -3.5776713 -3.50088 -3.2649338 -3.1532564 -3.4251993 0.85344005
2.0994787 0.7861653 -3.5386622 -3.0740986 0.8278607 0.6550823 0.09652179 0.67558336
-3.4343808 -3.8558257 -3.4902146 -3.713777 -3.3258665 -3.3914642 -3.4371116 0.73793614
-0.92560375 0.4985895 3.5148818 3.9203823 -0.046830956 0.46404296 0.022050092 -0.05317196
3.5560205 3.5723798 3.8335114 3.928046 4.456863 3.0816796 3.5058208 0.49609652
2.231273 0.88246435 -3.629715 -3.6355577 0.91207427 0.682703 0.15955319 0.714752
-3.4611866 -3.4662516 -3.7089727 -3.6700666 -3.752524 -2.9614406 -3.441744 0.856539
-1.6312821 2.4883933 -2.1183717 -1.733881 -0.031381622 1.698519 0.00011351457 -0.008318894
0.0929012 -0.13076545 -2.5235584 0.67421585 -3.4805686 0.12675032 -0.027779812 2.332954
-4.2155643 -8.566123 2.1989515 3.7966232 -3.750293 -4.4244895 -7.589565 -7.7643914
1.1998065 -0.032575633 2.5558481 1.6284984 2.803123 -2.0477977 0.6939284 -7.492632
1.9559113 0.8659943 -3.3606532 -3.595498 0.8884212 0.78300184 0.1758783 0.7014679
-3.51437 -3.335378 -4.039048 -3.5443113 -3.5666811 -3.2765155 -3.2624674 0.69997764
-2.613811 -1.869639 3.3957696 4.2012763 -0.759402 -1.6925727 -0.39259735 -0.8115543
4.3512206 3.6527996 3.565686 4.0620093 4.0619326 2.9829724 3.9839568 -1.8325846
-1.170314 2.7208462 -1.5023476 -1.4665629 -0.02204745 1.3885787 -0.0001779592 -0.0034191604
1.7240198 2.2937338 -2.177883 1.2952896 -4.129166 2.7375107 1.5177064 2.0590014
2.0350127 0.67306226 -3.2707446 -3.1224806 0.60998386 0.6386218 0.17290328 0.42623487
-3.1105318 -3.146144 -3.3098001 -3.6393101 -3.1508107 -3.140014 -3.1842077 0.67057306
2.2017894 0.75324965 -3.4441662 -3.260829 0.85882723 0.7562044 0.17220283 0.64231443
-3.3844056 -3.526894 -3.5910597 -3.7804759 -3.5013995 -3.2677162 -3.7404351 0.7048549
-3.2641804 -2.6716895 2.4279287 3.8346665 -0.908563 -2.0808518 -0.8388669 -1.3998895
2.5283346 1.9486974 3.2317533 3.0682266 3.4154513 1.9950609 2.7740211 -2.501071
-0.7950157 0.50612015 3.995626 3.676619 -0.043376587 0.60288453 0.035408653 -0.060617637
3.3703737 3.4849563 4.2414966 3.4302363 3.7177908 3.1807432 3.3316474 0.5075125
-0.9862044 1.8381913 1.5583892 1.8459955 -0.0141068725 1.7224638 0.00046198143 -0.0023582994
0.46214718 0.77812934 0.8693367 0.16710244 -0.007216892 0.9717951 0.3968407 2.4286838
2.7591586 0.8616457 -3.539633 -3.7577224 0.75454575 0.6713773 0.14569272 0.65259826
-3.530551 -3.1817536 -3.6983025 -3.8084197 -3.3858733 -2.9113767 -3.1185846 0.772896
-1.150204 1.4648387 2.199382 3.0274994 -0.04654838 1.4702688 0.012805448 -0.037605554
2.9761841 3.1202595 2.270596 2.5904477 1.0587573 3.3333411 3.245185 1.0710747
00000000: 3d3c 0c40 9cca 543f bf09 4bc0 798c 57c0
00000010: cd99 503f db9b 1b3f 4a58 253e ec25 263f
00000020: 5fe6 63c0 e2ff 6fc0 91f8 64c0 6b0e 60c0
00000030: adf4 50c0 f4ce 49c0 7736 5bc0 0c7b 5a3f
00000040: dc5d 0640 2142 493f 7179 62c0 08be 44c0
00000050: aeee 533f 79b3 273f 37ad c53d 08f3 2c3f
00000060: e5cc 5bc0 d9c5 76c0 ad5f 5fc0 86ae 6dc0
00000070: ffda 54c0 c00d 59c0 a3f9 5bc0 62e9 3c3f
00000080: 5ef4 6cbf 1f47 ff3e d3f3 6040 8be7 7a40
00000090: d1d1 3fbd 0a97 ed3e 65a2 b43c d7ca 59bd
000000a0: d795 6340 dfa1 6440 4058 7540 1b65 7b40
000000b0: 9f9e 8e40 3d3a 4540 5e5f 6040 5d00 fe3e
000000c0: 2dcd 0e40 2fe9 613f 404d 68c0 faac 68c0
000000d0: b37d 693f a0c5 2e3f e961 233e fdf9 363f
000000e0: 1584 5dc0 11d7 5dc0 cf5f 6dc0 5fe2 6ac0
000000f0: 5a29 70c0 3e88 3dc0 8945 5cc0 2446 5b3f
00000100: dacd d0bf d641 1f40 6793 07c0 d0ef ddbf
00000110: 048a 00bd 1269 d93f ac0e ee38 f84b 08bc
00000120: fc42 be3d 61e7 05be fb81 21c0 6999 2c3f
00000130: a3c1 5ec0 d6ca 013e 7d92 e3bc 1e4f 1540
00000140: e7e5 86c0 d70e 09c1 9fbb 0c40 e0fb 7240
00000150: cd04 70c0 6b95 8dc0 b7dd f2c0 e575 f8c0
00000160: 4293 993f 076e 05bd 0493 2340 a372 d03f
00000170: 5e66 3340 1e0f 03c0 4ba5 313f a4c3 efc0
00000180: 4d5b fa3f cdb1 5d3f f114 57c0 a41c 66c0
00000190: 926f 633f cf72 483f 7119 343e 6693 333f
000001a0: 70eb 60c0 d576 55c0 e23f 81c0 ffd5 62c0
000001b0: 8144 64c0 6eb2 51c0 44cc 50c0 bc31 333f
000001c0: ae48 27c0 5550 efbf 4a54 5940 db70 8640
000001d0: 2b68 42bf 39a6 d8bf 8502 c9be 06c2 4fbf
000001e0: 333d 8b40 78c7 6940 3334 6440 fbfb 8140
000001f0: 5afb 8140 05e9 3e40 26f9 7e40 2292 eabf
00000200: d9cc 95bf 5822 2e40 ed4c c0bf 55b8 bbbf
00000210: db9c b4bc f2bc b13f 8f9a 3ab9 fe13 60bb
00000220: aeac dc3f 89cc 1240 6f62 0bc0 0dcc a53f
00000230: 2122 84c0 6033 2f40 3444 c23f aec6 0340
00000240: a63d 0240 cf4d 2c3f e153 51c0 b9d6 47c0
00000250: e727 1c3f b87c 233f 8f0d 313e 753b da3e
00000260: f412 47c0 6c5a 49c0 c4d3 53c0 75ea 68c0
00000270: e2a6 49c0 fdf5 48c0 0fca 4bc0 adaa 2b3f
00000280: 1eea 0c40 f8d4 403f 386d 5cc0 6cb1 50c0
00000290: 1adc 5b3f 9d96 413f f055 303e b86e 243f
000002a0: 1a9a 58c0 a2b8 61c0 ecd3 65c0 51f3 71c0
000002b0: ee16 60c0 4322 51c0 4a63 6fc0 5f71 343f
000002c0: 55e8 50c0 f6fc 2ac0 2f63 1b40 2d6b 7540
000002d0: 9697 68bf ad2c 05c0 fbbf 56bf 942f b3bf
000002e0: 3cd0 2140 eb6e f93f 0cd5 4e40 d35d 4440
000002f0: c196 5a40 285e ff3f 9089 3140 8c11 20c0
00000300: 2686 4bbf 1791 013f 56b8 7f40 ba4d 6b40
00000310: a6ab 31bd a456 1a3f aa08 113d 334a 78bd
00000320: 34b4 5740 8609 5f40 57ba 8740 fe88 5b40
00000330: 49f0 6d40 4c91 4b40 b639 5540 57ec 013f
00000340: e477 7cbf da49 eb3f 4c79 c73f 9549 ec3f
00000350: 8320 67bc b279 dc3f 1936 f239 b38d 1abb
00000360: 8e9e ec3e 7c33 473f da8c 5e3f e71c 2b3e
00000370: ae7b ecbb 90c7 783f b42e cb3e 8e6f 1b40
00000380: 0e96 3040 d094 5c3f 5989 62c0 867e 70c0
00000390: e929 413f 62df 2b3f 7930 153e ae10 273f
000003a0: 8cf4 61c0 daa1 4bc0 fdb0 6cc0 26bd 73c0
000003b0: 26b2 58c0 ff53 3ac0 e496 47c0 83dc 453f
000003c0: e239 93bf d67f bb3f adc2 0c40 8dc2 4140
000003d0: 84a9 3ebd c531 bc3f f1cd 513c 4808 1abd
000003e0: cd79 3e40 55b2 4740 7251 1140 e5c9 2540
000003f0: 5c85 873f 7655 5540 1cb1 4f40 fa18 893f

bias f4 [16]
4.279579e-05 0.026430313 -0.10391647 0.02041347 -0.68996614 0.21050565 0.030348582 0.19061339
-0.6504789 0.016861578 0.026050605 0.2132536 -0.120415 -0.6359786 0.031223625 -0.42154846
00000000: a17f 3338 6284 d83c 29d2 d4bd 263a a73c
00000010: 9fa1 30bf cb8e 573e 979d f83c 2830 433e
00000020: c985 26bf 4b21 8a3c 1468 d53c 275f 5a3e
00000030: 249c f6bd 7ecf 22bf b0c8 ff3c 33d5 d7be

weight f4 [1, 16]
-3.299549 -3.2709804 5.7940545 -2.8316436 6.957939 4.415566 -2.779262 5.0636125
6.1036525 -3.7668538 -3.2198045 5.0590534 5.9867144 5.995685 -2.870698 5.826864
00000000: d02b 53c0 be57 51c0 e568 b940 a639 35c0
00000010: 70a7 de40 514c 8d40 6edf 31c0 1d09 a240
00000020: 1f51 c340 2214 71c0 4711 4ec0 c4e3 a140
00000030: 2a93 bf40 a7dc bf40 84b9 37c0 ab75 ba40
